Model: "sequential"
_________________________________________________________________
Layer (type)                 Output Shape              Param #   
=================================================================
conv2d (Conv2D)              (None, 217, 217, 32)      11648     
_________________________________________________________________
max_pooling2d (MaxPooling2D) (None, 72, 72, 32)        0         
_________________________________________________________________
conv2d_1 (Conv2D)            (None, 72, 72, 64)        51264     
_________________________________________________________________
max_pooling2d_1 (MaxPooling2 (None, 24, 24, 64)        0         
_________________________________________________________________
conv2d_2 (Conv2D)            (None, 24, 24, 128)       73856     
_________________________________________________________________
conv2d_3 (Conv2D)            (None, 24, 24, 256)       295168    
_________________________________________________________________
conv2d_4 (Conv2D)            (None, 24, 24, 512)       1180160   
_________________________________________________________________
max_pooling2d_2 (MaxPooling2 (None, 8, 8, 512)         0         
_________________________________________________________________
flatten (Flatten)            (None, 32768)             0         
_________________________________________________________________
dense (Dense)                (None, 4096)              134221824 
_________________________________________________________________
dropout (Dropout)            (None, 4096)              0         
_________________________________________________________________
dense_1 (Dense)              (None, 4096)              16781312  
_________________________________________________________________
dropout_1 (Dropout)          (None, 4096)              0         
_________________________________________________________________
dense_2 (Dense)              (None, 2)                 8194      
=================================================================
Total params: 152,623,426
Trainable params: 152,623,426
Non-trainable params: 0
_________________________________________________________________
